data.pth (torch, 164991 bytes, 6 tensors)

l1.weight f4 [8, 1210]
0	0x3e86dd61	0.26340774
1	0x3e7d21f2	0.2471998
2	0x3f04be31	0.5185271
3	0x3f01086c	0.50403476
4	0x3ecef19d	0.4041871
5	0x3ed282d1	0.4111543
6	0xbe346c84	-0.1761952
7	0x3f0584c4	0.5215571
8	0x3f09721f	0.5368976
9	0xbe5de390	-0.2166884
10	0xbe54a27c	-0.20765108
11	0x3ed26b82	0.41097647
12	0x3e90594c	0.28193128
13	0x3e6aac15	0.22917207
14	0x3f1ba004	0.6079104
15	0x3edef18f	0.4354367
16	0xbe620d24	-0.22075325
17	0xbe5ba0ea	-0.21448103
18	0x3e5e4e62	0.21709588
19	0x3eec919d	0.46204844
20	0x3d004271	0.031313363
21	0x3ea207bc	0.31646526
22	0x3e9911da	0.29896432
23	0x3f091452	0.5354663
24	0x3f075a89	0.5287252
25	0xbecda132	-0.40162045
26	0xbef8d26c	-0.4859804
27	0x3ed9e141	0.42554668
28	0x3e90fe57	0.28319046
29	0x3e96c6e1	0.29448608
30	0x3e955e76	0.2917363
31	0x3e597e15	0.21239503
32	0x3ec6cd5e	0.38828558
33	0x3e2d2e2f	0.16912149
34	0x3e4a8359	0.19776668
35	0xbe99035c	-0.29885375
36	0xbe6519bd	-0.223731
37	0xbe59a84a	-0.21255603
38	0xbe7ba1c3	-0.24573426
39	0x3ed4ec85	0.415867
40	0xbec964e4	-0.39334786
41	0xbdf1d33f	-0.1180787
42	0xbc61b128	-0.0137751475
43	0x3e87646b	0.264438
44	0x3e869ccc	0.26291502
45	0x3ea758a5	0.32684818
46	0x3eb72368	0.357692
47	0x3efef632	0.49797207
48	0xbed1fb06	-0.41011828
49	0xbebcdc5f	-0.3688688
50	0xbe14047f	-0.1445484
51	0x3e4ece28	0.2019583
52	0x3bfad586	0.0076548485
53	0x3ea8e6e4	0.32988656
54	0xbe41bc0b	-0.18919389
55	0x3ec98f34	0.39367068
56	0x3edf89ea	0.43659908
57	0xbe2782fb	-0.16358559
58	0xbe38c09c	-0.18042225
59	0x3e6b13d2	0.2295678
60	0xbf01753c	-0.5056951
61	0x3f0b2581	0.543541
62	0x3f1686ee	0.58799636
63	0x3f071213	0.52761954
64	0x3e8f0655	0.27934518
65	0x3e94a5c4	0.2903272
66	0x3ed2c430	0.41165304
67	0x3ed28c1a	0.41122514
68	0x3ebb91fd	0.36634818
69	0x3ecef75e	0.404231
70	0xbd5a7f8f	-0.053344306
71	0xbe20b7f0	-0.15695167
72	0x3ec56d53	0.3855997
73	0x3e3354e7	0.17512856
74	0x3e0c352a	0.13692155
75	0x3ecfec2b	0.4060987
76	0x3ed56b69	0.4168351
77	0x3ebaa620	0.36454868
78	0x3f01da63	0.50723857
79	0x3f04d071	0.51880556
80	0x3eb2c0f0	0.34912825
81	0x3eedc015	0.4643561
82	0x3ed64a09	0.4185336
83	0x3ecaa575	0.3957936
84	0xbec95a27	-0.39326593
85	0x3f244bc6	0.6417812
86	0x3f263d3e	0.649372
87	0x3e000f82	0.12505916
88	0x3f1b88c2	0.6075555
89	0x3efee549	0.49784306
90	0x3f0e4fce	0.5559052
91	0x3f014007	0.5048832
92	0x3f0abbdb	0.54192895
93	0x3eed6b98	0.4637115
94	0x3f410b24	0.75407624
95	0xbe75bb19	-0.23997153
96	0xbe1f5100	-0.15558243
97	0xbe5cabd5	-0.21549924
98	0xbe5e046b	-0.21681373
99	0x3e99867a	0.2998541
100	0x3f1093c7	0.5647549
101	0xbecc52ab	-0.3990682
102	0x3ef67e0b	0.48143038
103	0x3f171c48	0.5902753
104	0x3ee1137c	0.43960178
105	0x3e0a4507	0.13502894
106	0x3f1203fb	0.57037324
107	0xbebe12f1	-0.37123826
108	0x3ec1a74f	0.3782296
109	0x3ecdf4dd	0.40225878
110	0x3e8e6fc8	0.27819657
111	0x3e9909ac	0.29890192
112	0x3e830392	0.2558866
113	0x3e6e2b48	0.23258698
114	0x3f13bac2	0.57706845
115	0x3f1241c3	0.57131594
116	0x3e706add	0.23478265
117	0x3e851b2c	0.25997293
118	0x3f04b6f5	0.5184167
119	0x3e6d96d5	0.23202069
120	0x3e90c7a3	0.2827731
121	0x3f39d0ad	0.7258404
122	0x3f06a8cd	0.5260132
123	0x3eae5db5	0.34055868
124	0xbec99b76	-0.3937642
125	0x3ef050a5	0.46936527
126	0x3e1f654a	0.15565982
127	0x3f28c335	0.6592286
128	0x3e785e88	0.24254811
129	0x3df23088	0.11825663
130	0xbded2480	-0.115792274
131	0xbcbb54ca	-0.022867579
132	0xbf1c2dda	-0.61007464
133	0xbecc6b0b	-0.39925417
134	0xbe9dead3	-0.3084322
135	0xbf1bb1f3	-0.60818404
136	0x3f172686	0.5904316
137	0x3ebf7877	0.37396595
138	0xbe69e5f7	-0.22841631
139	0x3d588c0c	0.052867934
140	0x3e1c6c3d	0.15275665
141	0xbe9af473	-0.30264625
142	0x3ec2be1d	0.3803567
143	0x3e0e04ac	0.1386897
144	0x3e373969	0.17892994
145	0x3ef4b48b	0.47793993
146	0x3eeea788	0.4661219
147	0x3e81ec6e	0.25375694
148	0x3e8a95ee	0.27067512
149	0x3ed0d610	0.40788317
150	0xbe419c92	-0.18907383
151	0x3eca215a	0.3947857
152	0x3e83c9d7	0.2573993
153	0x3f1d8868	0.61536264
154	0x3f15b135	0.5847352
155	0x3ee6f8ed	0.4511179
156	0x3edd76a1	0.4325457
157	0x3e89fac3	0.26949129
158	0xbebef992	-0.37299782
159	0xbe48b36b	-0.19599693
160	0xbe5e3243	-0.21698861
161	0xbe1e4746	-0.15456876
162	0x3e826476	0.2546727
163	0x3e80e793	0.25176677
164	0x3e86ed1a	0.2635277
165	0x3eeb4e93	0.45958385
166	0x3e897121	0.26844123
167	0x3ed28235	0.41114965
168	0x3e7229e7	0.23648797
169	0x3ef44c3d	0.47714415
170	0x3eca119c	0.3946656
171	0x3e871ee6	0.2639076
172	0x3ec0b524	0.376382
173	0x3ea884ba	0.32913762
174	0x3e595fab	0.212279
175	0x3e36f97f	0.17868613
176	0x3f0c6d20	0.5485401
177	0x3f09b69d	0.5379427
178	0xbe2fe9d8	-0.17179048
179	0xbe3de84a	-0.18545642
180	0x3ef25a75	0.47334638
181	0x3ee12325	0.43972126
182	0xbe1b496e	-0.1516473
183	0xbe4371c2	-0.19086364
184	0xbe09d882	-0.13461497
185	0xbdf42d03	-0.11922648
186	0xbe9a3e02	-0.30125433
187	0x3e65a9ee	0.22428104
188	0x3f073f99	0.5283142
189	0x3f011d28	0.50435114
190	0x3eeb893f	0.46003148
191	0xbd8b1c8d	-0.06792555
192	0x3ec9f1d8	0.39442325
193	0xbe7cefe6	-0.24700889
194	0xbe3d6e9b	-0.18499224
195	0xbe666067	-0.22497712
196	0xbd4ddc11	-0.0502587
197	0xbcd97b9b	-0.026548197
198	0x3e8967f7	0.2683713
199	0x3e7a119b	0.24420778
200	0x3e9225db	0.28544506
201	0x3f041dc2	0.51607907
202	0x3f001ad8	0.5004096
203	0x3eeef44c	0.4667076
204	0x3efdac1c	0.49545372
205	0x3f393e8a	0.7236105
206	0x3f0cdb45	0.5502208
207	0x3e636590	0.22206712
208	0x3ec70f5c	0.38878906
209	0x3ec60464	0.38675225
210	0xbe26f45a	-0.1630415
211	0xbda26205	-0.07928852
212	0xbe1db65d	-0.15401597
213	0xbe399521	-0.18123294
214	0xbe4e1720	-0.20126009
215	0xbed949ca	-0.4243911
216	0x3e8880f4	0.26660883
217	0x3f32527c	0.6965711
218	0x3efad916	0.48993748
219	0x3f05c5a5	0.52254707
220	0x3ef20ab7	0.472738
221	0x3ef9fe95	0.48827043
222	0x3ede6389	0.43435314
223	0xbe215295	-0.15754159
224	0xbe6ae9ee	-0.229408
225	0x3ec565fe	0.38554376
226	0x3f0f374c	0.5594375
227	0xbe51b12e	-0.20477745
228	0x3f1b2ede	0.6061839
229	0xbe2b1421	-0.16706897
230	0x3ece1041	0.40246776
231	0x3ecc8279	0.39943293
232	0x3f0085d4	0.50204206
233	0x3ef0ae84	0.47008145
234	0xbe800205	-0.2500154
235	0x3eab93fc	0.3351134
236	0x3eaa97be	0.33318895
237	0x3e6e1940	0.2325182
238	0x3e784e8c	0.24248713
239	0x3ec05092	0.3756147
240	0x3eb49ef3	0.3527752
241	0x3f1278a8	0.57215357
242	0x3f14b8df	0.5809459
243	0xbec96981	-0.39338306
244	0x3f146cf2	0.5797874
245	0x3f075d53	0.52876776
246	0x3f083845	0.5321086
247	0x3ed1c7fd	0.4097289
248	0x3f2ed926	0.6830009
249	0x3e98fc59	0.29880026
250	0x3e7fca02	0.24979404
251	0x3ef89721	0.48552802
252	0xbe7cf914	-0.24704391
253	0xbe761996	-0.24033198
254	0x3f0d1020	0.5510273
255	0x3f5cab26	0.8619865

l1.bias f4 [8]
0	0x3ec949d2	0.39314133
1	0x3ed4b764	0.41546166
2	0x3ebe7ecf	0.37206122
3	0x3eca46ab	0.3950704
4	0x3f57a93f	0.84242624
5	0x3ef6dca0	0.482152
6	0x3ec8f5a6	0.39249915
7	0x3f4d4893	0.80188864

l2.weight f4 [8, 8]
0	0x3daa896f	0.08326995
1	0x3fee90a6	1.8637893
2	0x3f7a1e44	0.9770243
3	0x3ff2f4ac	1.8980918
4	0xbf58db4d	-0.84709626
5	0x3e84ecfd	0.25962058
6	0x3ffc65fc	1.9718623
7	0x4001fad4	2.0309343
8	0x400ccf89	2.200167
9	0xbfbae0d7	-1.4599866
10	0x3f79c3a1	0.9756413
11	0x4002cc1c	2.0437078
12	0x3fdf0a22	1.7424967
13	0x3ea88b1e	0.32918638
14	0x3fa66f9d	1.3002812
15	0xbee575f1	-0.44816545
16	0x3f651188	0.89479876
17	0xbfad29f5	-1.3528429
18	0x3f9a0894	1.2033868
19	0x3d9c3322	0.0762694
20	0x3fa8ec9a	1.3197205
21	0xbfe2f61e	-1.7731359
22	0x3e43cb61	0.19120552
23	0x3f47aa8e	0.7799462
24	0x3edcf243	0.4315358
25	0xbed17783	-0.40911493
26	0xbe79d9b6	-0.24399456
27	0xbe9a92b0	-0.3019004
28	0xbe9138bb	-0.28363594
29	0xbe6de481	-0.23231699
30	0x3f45a9cd	0.7721222
31	0x3f311156	0.6916708
32	0xbf5edcb0	-0.8705549
33	0x3ff6fd1c	1.9295993
34	0xbfb0e156	-1.3818767
35	0xbf289564	-0.6585295
36	0x3fc09246	1.5044639
37	0x40169062	2.3525624
38	0xbfc4e556	-1.5382488
39	0x3f9e0d5f	1.234783
40	0x3f1812e8	0.5940385
41	0x3f083d48	0.5321851
42	0x3f46f12a	0.7771174
43	0xbf55e25d	-0.8354853
44	0x3f002f33	0.5007202
45	0xbf132123	-0.5747244
46	0xbddd9bd6	-0.10820739
47	0x3e2f6af0	0.17130637
48	0x3ffb3387	1.96251
49	0x3ec2093a	0.37897664
50	0x3fbb7be0	1.4647179
51	0x3eccc0d4	0.39990866
52	0x3f3151ad	0.6926525
53	0x3fd66231	1.6748716
54	0xbd1dc91a	-0.038521864
55	0xbf618492	-0.8809291
56	0x3d8f756e	0.0700482
57	0xbeb327cf	-0.3499131
58	0xbe3267eb	-0.17422454
59	0x3e16119a	0.14655152
60	0x3edfdcc8	0.4372313
61	0xbe9661de	-0.29371542
62	0x3e934c90	0.2876935
63	0x3ec73a7b	0.38911805

l2.bias f4 [8]
0	0xbede71f0	-0.43446302
1	0xbeb78040	-0.35840034
2	0x3f8a3c27	1.0799607
3	0x3cf74ab9	0.030186998
4	0x3fdaf544	1.7106099
5	0xbe3f663d	-0.18691345
6	0xbe6885a1	-0.22707225
7	0xbe546f2d	-0.20745535

l3.weight f4 [10, 8]
0	0xbfb6390d	-1.423616
1	0x3f780221	0.9687825
2	0xbf930459	-1.1485702
3	0xbe8ce3bd	-0.275175
4	0xbe13dbb8	-0.14439285
5	0xbfac95e8	-1.3483248
6	0x3f4bc0d5	0.79591113
7	0xbf58f0b6	-0.84742296
8	0x3e361d47	0.17784606
9	0x3e3ec863	0.18631129
10	0x3b6f2696	0.0036491505
11	0x3f4c4cae	0.79804504
12	0xbf275b40	-0.6537361
13	0xbfd29270	-1.6450939
14	0xbfa6bf0b	-1.3027052
15	0xbe0bf26c	-0.13666695
16	0x3ef31cc1	0.47482875
17	0x3f0f831d	0.5605944
18	0x3f1c9f46	0.6118053
19	0xbf198c1e	-0.59979427
20	0xc016f95f	-2.3589704
21	0xbf8c3ddd	-1.0956379
22	0xbe4fae04	-0.20281225
23	0x3d888b0c	0.06667146
24	0xbfa9739e	-1.3238409
25	0xbeed6144	-0.4636327
26	0xc04629ae	-3.096294
27	0xbf6f9294	-0.93583035
28	0x3f5885c7	0.8457913
29	0xbf9c0373	-1.2188553
30	0x3ed45298	0.41469264
31	0xbef98e8a	-0.4874156
32	0xbe586803	-0.21133427
33	0xbf1e5e3b	-0.61862534
34	0x3e5d4101	0.21606828
35	0x3f086f3c	0.5329473
36	0xbda21f44	-0.0791612
37	0xbe8e96fa	-0.2784956
38	0xbfce7617	-1.6129788
39	0xbe81537e	-0.25259012
40	0xc030f7fc	-2.7651358
41	0x3eda259b	0.42606816
42	0x3f179975	0.5921853
43	0xbf403a51	-0.75088984
44	0x3c473ba8	0.012160219
45	0xbd0bd58a	-0.034139194
46	0xbf82794d	-1.0193268
47	0x3ec7be14	0.39012206
48	0x3f8f36e8	1.1188631
49	0xbfc85d37	-1.5653447
50	0xbfdced9a	-1.726001
51	0xbf6e5570	-0.9309912
52	0x3ee44409	0.44583157
53	0xbd52d905	-0.051476497
54	0xbeddc990	-0.43317842
55	0xbe89f805	-0.26947036
56	0x3f76b773	0.9637367
57	0x3e864fa0	0.26232624
58	0xbf97945c	-1.1842151
59	0xbf6e8c31	-0.93182665
60	0xbf78bbbf	-0.9716148
61	0xbf07e4b9	-0.5308338
62	0x3f19c910	0.6007242
63	0xbf272e51	-0.6530505
64	0xbf386e2c	-0.7204311
65	0x3e5015fb	0.20320885
66	0x3f35d1e9	0.7102342
67	0xbebe4ef6	-0.37169617
68	0xbf80bb40	-1.0057144
69	0x3f5c7641	0.8611794
70	0x3f0c2e50	0.5475817
71	0xbf145c79	-0.579536
72	0xbfc4e69f	-1.538288
73	0xbfd47d09	-1.6600658
74	0x3ed53efa	0.4164961
75	0xbf28ef77	-0.65990394
76	0x3f0fad4e	0.56123817
77	0xbfc720ea	-1.555692
78	0xbff68caf	-1.9261683
79	0xbf92d142	-1.147011

l3.bias f4 [10]
0	0xbf59d1c6	-0.85085714
1	0xbe815225	-0.25257984
2	0xbf5034c3	-0.8133051
3	0x3d8846ed	0.06654153
4	0xbe9b35a8	-0.30314374
5	0xbf3eb3a0	-0.74492836
6	0xbe93467d	-0.28764716
7	0xbe9b5982	-0.30341727
8	0xbf0ff09c	-0.56226516
9	0x3fc3ed14	1.5306726
