data.pth (torch, 3071 bytes, 6 tensors)

l1.weight f4 [8, 16]
00000000: c497 0ebe ba48 fbbd e313 ee3d 8874 87bd
00000010: 4b34 03be 46ff 62be ca42 ab3e 79d1 ac3e
00000020: 9ae3 6dbe e4f0 24be 6ee9 20be 8c2c bf3d
00000030: 9813 c0bd 0ffb 48be afa3 413e 10f8 973c
00000040: 8dfb b03e 166d f1be 2187 e63e 2bc7 5e3e
00000050: 2e9f c63e 1b64 b1be 411a ec3e 87ef 7c3e
00000060: 0bff cd3e 4c11 353f 0ec7 c5be b04b b23b
00000070: 8a24 af3d 5da2 ed3e c9d0 593e ecf9 27be
00000080: fd35 323e 886b 36be f400 9e3e 676d 823e
00000090: 9010 ca3e 0979 32be 85dd d13e b250 c83e
000000a0: b7fe a33e 64b1 67be 0d1d 11be 552b bd3e
000000b0: 1969 3bbe f60a 9c3e 7d54 2e3e c00a 1a3e
000000c0: 78f3 75bd 80c3 29be 4e0d 0abe 32f3 2a3e
000000d0: ecb1 edbd e79e 133e 0cc4 ac3d c06b 0bbe
000000e0: e6ce 1c3e 84d9 77be 8a83 5a3d 6e92 28be
000000f0: ba64 843d e05b 7bbd d214 10be ea0d 863d
00000100: 6ff0 023e c292 c1be ad8c e53d 6e1c 883e
00000110: 6d5c 973e 9390 c1be 517a d43e 3a0e 023f
00000120: f7b4 103f 4ad0 f03e 8605 3c3c 4a01 823e
00000130: e83f d0bd 5965 343e b645 a33e c6f1 8ebe
00000140: 4035 13be ec8f 973e 2e53 12be 4c57 9e3d
00000150: a808 b0be 8f61 233f 7d4a 84be 1d4e a8be
00000160: 87ad debe e369 f5be 2b0b de3e ca2e 12be
00000170: 2e5a 1d3f e3c4 c1be 0fcb dfbd e736 153f
00000180: f1bb eb3e 1243 983e 7e94 893e 6106 a53e
00000190: 8423 e33e 84dd 633e 7d51 df3e 663a a93e
000001a0: 147e 103f f196 10be 0472 c23e b893 763e
000001b0: a1ba 733e 04e3 5b3e 6fa0 603e 0116 303e
000001c0: 04f7 4abe fad9 43be 0067 94bd 9c8a a03d
000001d0: 5859 55be 78ea b33d bc39 f9bd ac48 863d
000001e0: 3047 70bd e0db 51bd 20b9 093c 849d a93d
000001f0: 60e9 77be 6cc5 cfbd 8004 2ebd ace5 7a3e
-0.13925081 -0.12269731 0.11624887 -0.066140234 -0.12812917 -0.22167692 0.33449394 0.33753565
-0.23231354 -0.16107517 -0.15714046 0.093346685 -0.09378737 -0.19627021 0.18910097 0.018550903
0.34566918 -0.47153538 0.4502497 0.21755664 0.3879332 -0.34646687 0.4611378 0.24700747
0.40233645 0.7072952 -0.3862843 0.0054411516 0.08551891 0.46412936 0.21271051 -0.16403931
0.17403407 -0.17814457 0.30860102 0.25474092 0.3946576 -0.17428984 0.40989318 0.39124066
0.3203027 -0.22626263 -0.14171238 0.36947122 -0.1830181 0.30477113 0.17024417 0.15043163
-0.060046643 -0.16578484 -0.13481638 0.16694334 -0.116062015 0.14416085 0.084358305 -0.13615322
0.153133 -0.2420407 0.0533481 -0.16462108 0.064645246 -0.061366916 -0.14070442 0.06545623
0.1278703 -0.3780728 0.112084724 0.2658419 0.29562703 -0.37805614 0.4149957 0.5080296
0.5652613 0.47033912 0.011475926 0.25391608 -0.10168439 0.17616786 0.31889123 -0.27918833
-0.14375782 0.2960199 -0.14289543 0.07731494 -0.34381604 0.6382074 -0.2583808 -0.32872096
-0.43491766 -0.47932348 0.43367895 -0.14275661 0.6146573 -0.37845525 -0.10927402 0.582869
0.46041825 0.2973867 0.26871103 0.3223143 0.44363034 0.2225247 0.43616858 0.33052367
0.5644238 -0.1412008 0.37977612 0.24079788 0.23801662 0.21473318 0.219362 0.17195894
-0.19820791 -0.1912612 -0.07246208 0.07838938 -0.20834863 0.08784956 -0.12169215 0.0655683
-0.05866164 -0.05123508 0.008405954 0.08281997 -0.24210119 -0.10145077 -0.04248476 0.24501675

l1.bias f4 [8]
00000000: e41a fb3d 506b f13e 2379 323e 815b 4dbe
00000010: 6e8e c13e 1dea f83e 6fec da3e 2a3f 32be
0.12260988 0.47152185 0.17429022 -0.20054437 0.37803978 0.48616114 0.4275851 -0.17406908

l2.weight f4 [8, 8]
00000000: ef89 113e e9ab df3e b5be 203f 482d d4bd
00000010: 0279 b43e a22a 0ebf 88e5 753e 5e90 693e
00000020: 7a71 813e 2b23 013f 9832 333e 210a 413e
00000030: 8648 fc3e 2cd2 94be 9c5b 883e 2286 333e
00000040: 79d8 833e 58b0 693f 2bb2 573f 8b38 85be
00000050: 2742 483f 0e54 9dbe 60bc e13e e838 413d
00000060: 221e 493e e000 003d dd4c 5bbe 3a0f d6bd
00000070: 9179 8dbe 906d c4bd c8b5 6d3d dbd5 b1be
00000080: 0138 9c3d 8867 9f3e daba 153f 9740 7f3e
00000090: f84d 283f 5f5b aabe e699 9d3e a6ae a1be
000000a0: 4e59 91be b36b bcbe 36d9 5ebf e322 c13e
000000b0: 6412 09bf f058 783f a4b2 233f 0219 a0be
000000c0: bdbd c43e 3751 313f 6212 173f 6bee a6be
000000d0: f130 3e3f 5a01 07be ff2e 3a3d 56bf 46be
000000e0: 2b75 2e3e 1a2e 49be c18f 2abf dfc5 343e
000000f0: 9a19 b5be 91b5 1a3f 28ed 2a3f 90f0 50be
0.14212774 0.43685845 0.62790996 -0.10360199 0.35248572 -0.555338 0.2401334 0.22808978
0.25281888 0.5044429 0.17499769 0.1885152 0.4927408 -0.29066598 0.26632392 0.17531636
0.25751093 0.91284704 0.8425624 -0.260197 0.7822594 -0.3072819 0.4408903 0.04717341
0.19640401 0.031250834 -0.2141604 -0.10452123 -0.2763181 -0.0959121 0.05803469 -0.3473347
0.076278694 0.31133676 0.5848824 0.24926983 0.6574397 -0.33272836 0.30781478 -0.3157856
-0.28388447 -0.36800918 -0.8705019 0.3772193 -0.53543687 0.9701071 0.6394446 -0.3126908
0.3842601 0.6926455 0.59012425 -0.32603773 0.7429343 -0.1318411 0.045454975 -0.19408926
0.17036884 -0.19646493 -0.666256 0.17653607 -0.35371095 0.604333 0.6676812 -0.20404267

l2.bias f4 [8]
00000000: b972 0f3e 36eb 213d 0f5d a1bd a3db 00be
00000010: 5673 1b3d 6be3 323f 4364 033d be1b fc3e
0.14008607 0.039530955 -0.07879078 -0.12583785 0.03795179 0.6987826 0.03207804 0.49239916

l3.weight f4 [2, 8]
00000000: 8257 ffbe b325 b4be d9b9 5ebf 580d 0bbd
00000010: 50ab c8be 3ca0 0c3f 65da 02bf 9df3 6b3f
00000020: f9d4 213f 6707 263f 99df 2d3f 8acf 6a3e
00000030: 34d0 df3e 7d5f 9ebf f8f2 383f c43c 2dbf
-0.4987145 -0.35185012 -0.8700233 -0.033948272 -0.391932 0.54932 -0.51114494 0.921686
0.63215595 0.64855045 0.6791931 0.22930732 0.43713534 -1.2372891 0.7224574 -0.67670846

l3.bias f4 [2]
00000000: ece7 923e 63d8 d9bd
0.28692567 -0.106369756
