model_data.pth (torch, 29295 bytes, 6 tensors)

l1.weight f4 [8, 572]
0	0x3f24a9df	0.643217
1	0x3cc89705	0.024486074
2	0xbdb3330c	-0.08749971
3	0xbc83f3c4	-0.016107447
4	0x3e70f1be	0.23529717
5	0x3e628d3f	0.22124194
6	0xbe061acb	-0.13096158
7	0xbebeff0f	-0.3730397
8	0xbe501981	-0.20322229
9	0x3f2e0141	0.67970663
10	0x3ecc3f4b	0.3989204
11	0x3ea590b8	0.32336974
12	0xbd158b42	-0.03650976
13	0xbf028050	-0.5097704
14	0x3f0dcf23	0.5539419
15	0xbf17fb29	-0.59367615
16	0x3fff2c3a	1.9935372
17	0x3f63b135	0.8894227
18	0x3c5b2a3b	0.013376768
19	0x3c8b3a63	0.016995614
20	0xbee7ee21	-0.45298865
21	0xbf2791c8	-0.6545682
22	0x3f6edb66	0.93303525
23	0xbe94242b	-0.28933844
24	0x3d6869f8	0.056741685
25	0xbe2b0341	-0.1670046
26	0x3f7fe2fc	0.99955726
27	0x3fc86532	1.5655882
28	0x3f131f74	0.5746987
29	0xbe7c1b0f	-0.24619697
30	0x3f09bfaf	0.5380811
31	0x3e4ab741	0.19796468
32	0x3f208557	0.6270346
33	0xbefc9404	-0.49331677
34	0xbf2a0a0e	-0.6642159
35	0x3f4e8880	0.8067703
36	0xbf187656	-0.59555566
37	0x3fa5a261	1.2940179
38	0xbf14fbd0	-0.58196735
39	0x3f9a1d07	1.2040108
40	0x3ec3c36d	0.38235036
41	0xbf2a5e2e	-0.66549957
42	0x3c45f1c7	0.01208157
43	0x3be87453	0.007093945
44	0x3c7a2a0b	0.015268813
45	0x3f5a19de	0.8519572
46	0xbf9f3c02	-1.2440188
47	0xbfe6b1b0	-1.8022976
48	0x3f349d34	0.7055237
49	0xbfcbac39	-1.5911933
50	0x3f3202e6	0.6953567
51	0x3ea0a639	0.31376818
52	0x3f027820	0.50964546
53	0x3f671d6e	0.9027928
54	0x3ed599c1	0.41718867
55	0x3f726e5f	0.9469966
56	0x3d367e4c	0.04455404
57	0x3f39e740	0.72618484
58	0x3f182fc5	0.5944789
59	0x3b05dd47	0.002042608
60	0x3e36423e	0.17798707
61	0x3e0a3a2d	0.13498755
62	0x3f030ea1	0.51194197
63	0xbcdf1604	-0.027232178
64	0xbc6a15d6	-0.014287433
65	0xbea71c1f	-0.32638642
66	0xbfa9d9fc	-1.3269649
67	0x3e35a9ce	0.17740557
68	0xbf852507	-1.0401925
69	0x3f19b89c	0.60047317
70	0xbd366a90	-0.04453522
71	0x40378012	2.8671918
72	0xbe4cc4a2	-0.19996884
73	0x3ed463cf	0.41482398
74	0x3e70cfc2	0.23516753
75	0xbbc23590	-0.0059267953
76	0xbfc25589	-1.5182353
77	0x3fa926af	1.321493
78	0x3d3a2655	0.045446713
79	0xbe95e2c6	-0.29274577
80	0x3f6bd9d1	0.92129236
81	0x3ccce50c	0.025011562
82	0xbf6508b1	-0.8946639
83	0xbeda416a	-0.42628032
84	0xbe699b9d	-0.22813268
85	0x3f901f76	1.1259601
86	0x3e9b1465	0.30288997
87	0xbe93c859	-0.2886379
88	0x3f9844ec	1.1896033
89	0xbeec41b2	-0.46143872
90	0xbe9ad18e	-0.30238003
91	0xbe201b3a	-0.15635386
92	0x3f0fb418	0.56134176
93	0xbe2d10f9	-0.16901006
94	0x3f23acbc	0.63935447
95	0xbf1aa7bb	-0.60412186
96	0xbe59370f	-0.2121241
97	0x3f8d0b2a	1.1019032
98	0x3e206a32	0.1566551
99	0x3e0b289b	0.13589709
100	0x3ed6bc7b	0.41940674
101	0xbc173116	-0.009228012
102	0x3ee5093f	0.44733617
103	0x3f43988e	0.76404655
104	0x3f649c60	0.8930111
105	0xbe128bd5	-0.14311154
106	0xbe8fd2fd	-0.2809066
107	0x3f8e8351	1.1133825
108	0xbd60a450	-0.0548442
109	0x3f11c948	0.56947756
110	0x3f0a696d	0.54067117
111	0xbe28ab6d	-0.16471644
112	0x3f0c25b3	0.54745024
113	0x3ea518b8	0.3224542
114	0xbe700e3f	-0.23442934
115	0xbf6859f2	-0.90762246
116	0x3d7fd95d	0.062463153
117	0x3ee65284	0.4498483
118	0x3fdcc05a	1.7246201
119	0x3b8c6946	0.0042850105
120	0x3f2c60c9	0.6733518
121	0x3e9291ce	0.28626865
122	0xbe831b83	-0.25606927
123	0xbe345f88	-0.17614567
124	0x3f755d3f	0.9584541
125	0x3f196722	0.59922993
126	0x3fb0f0f4	1.3823533
127	0x3f003ceb	0.50092953
128	0x3f2ad208	0.6672673
129	0x3d25a58a	0.040441073
130	0xbef04dcf	-0.46934363
131	0x3f80f011	1.0073262
132	0x3f267748	0.6502576
133	0x3f8959d4	1.0730538
134	0x3f618056	0.8808645
135	0xbe6ac54f	-0.2292683
136	0x3f8f97db	1.1218218
137	0x3eecb0e1	0.46228698
138	0xbc4774e4	-0.012173865
139	0xbe83546b	-0.25650343
140	0xbe4034cd	-0.18770142
141	0x3bd358dd	0.0064498023
142	0x3f4a1a89	0.7894674
143	0x3f54c373	0.8311073
144	0x3e2cf0e1	0.16888763
145	0x3ff6278d	1.923082
146	0x3e8fcd6c	0.28086412
147	0xbe601447	-0.21882735
148	0x3e83b172	0.25721318
149	0xbec85ef8	-0.39134955
150	0xbe2417db	-0.16024725
151	0x3e749f43	0.23888879
152	0xbd2a38d8	-0.041558117
153	0xbed50bfa	-0.416107
154	0xbf80ec75	-1.0072161
155	0x3f587825	0.84558326
156	0x3f3e72fe	0.74394214
157	0x3dc7c473	0.097542666
158	0xbefbad77	-0.4915578
159	0x3d6e0290	0.058107913
160	0x3e754695	0.23952706
161	0x3f9debf8	1.2337637
162	0xbe894344	-0.26809132
163	0xbe85786f	-0.26068446
164	0x3e543ae1	0.20725586
165	0xbe61e520	-0.2206006
166	0xbe1191e5	-0.1421581
167	0x3fb349dc	1.4006915
168	0xbe7fe32b	-0.24989001
169	0x3ef6f65f	0.4823484
170	0x3edba201	0.42897037
171	0x3f502711	0.8130961
172	0x3e7fdb9c	0.24986118
173	0x3ec25ca4	0.37961304
174	0x3eb38f12	0.3507009
175	0x3e9b0279	0.30275324
176	0xbf6d75fa	-0.9275814
177	0x3f8ff5fa	1.1246941
178	0xbe862e51	-0.26207212
179	0x3f1108f9	0.56654316
180	0x3f0f21b4	0.559108
181	0xbe2a38dc	-0.16623253
182	0x3ece549e	0.40298933
183	0x3c5e794e	0.013578726
184	0x3f037bbc	0.5136068
185	0xbfb7337f	-1.431259
186	0xbeb94dd1	-0.36192182
187	0xbf094162	-0.5361539
188	0xbe6ada16	-0.22934756
189	0x3eef91e3	0.4679099
190	0x3f52541f	0.8215961
191	0x3f81c1f1	1.0137311
192	0x3f10da29	0.56582886
193	0xbd4af8b4	-0.049553588
194	0x3e9f530c	0.31118047
195	0xbf5f3b97	-0.872003
196	0xbea71d55	-0.32639566
197	0x3f1108a6	0.5665382
198	0x3fda622f	1.7061213
199	0x3f9230fa	1.1421196
200	0x3dfee505	0.12446026
201	0xbeacd0bd	-0.33753005
202	0xbee26c14	-0.44223082
203	0xbe9585bd	-0.29203597
204	0x3e2ea965	0.17056806
205	0x3fc2edec	1.5228858
206	0x3f98e65b	1.1945299
207	0x3e1a6e72	0.15081194
208	0xbee4f2cc	-0.4471649
209	0x3f8f05e4	1.1173673
210	0x3fafaf6e	1.3725412
211	0x3ca9209e	0.020645436
212	0xbdcec976	-0.100970194
213	0x3f636929	0.88832337
214	0xbba428b8	-0.005009737
215	0xbff133f4	-1.884398
216	0x3b7dcb50	0.003872592
217	0xbcb85ab4	-0.022504188
218	0xbf280214	-0.6562817
219	0xbf442274	-0.7661507
220	0xbef7c6a5	-0.4839374
221	0x3ef6a46d	0.48172322
222	0xbe8f5f26	-0.2800228
223	0x3e3b8bd0	0.18315053
224	0xbf1ee1b1	-0.6206313
225	0xbf010992	-0.5040523
226	0x3ed47211	0.41493276
227	0x3f4470d8	0.76734686
228	0x3f2f2f76	0.68431795
229	0x3f56aaa5	0.8385413
230	0x3f42cf75	0.76097804
231	0x3f568648	0.83798647
232	0xbe065fee	-0.13122532
233	0xbf117532	-0.5681945
234	0xbf84a21e	-1.0361974
235	0xbc9202c8	-0.017823592
236	0xbf7eebbb	-0.99578446
237	0x3ed48700	0.41509247
238	0xbe3c76fd	-0.18404765
239	0x3f8f88f2	1.1213667
240	0xbf9f17c2	-1.2429125
241	0x3f6eb52a	0.93245184
242	0xbd180645	-0.037115354
243	0x3f86145a	1.0474961
244	0xbf1e05a1	-0.6172734
245	0xbf0ef6d7	-0.558454
246	0x3e565082	0.20929149
247	0xbeda74a6	-0.4266712
248	0x3cb61728	0.022227839
249	0x3c51e927	0.0128119355
250	0x3f596a52	0.84927857
251	0x3f960178	1.1719198
252	0x3f1ac068	0.6044984
253	0xbeac108d	-0.33606377
254	0xbded83a1	-0.11597372
255	0xbdc8fa3d	-0.09813354

l1.bias f4 [8]
0	0x3eea23ae	0.45730346
1	0x3f6dcf5c	0.9289453
2	0x3efae611	0.49003652
3	0x3f7b7b51	0.9823504
4	0x3f01fb48	0.5077405
5	0x3fae0e16	1.3598049
6	0x3f0d6e72	0.5524665
7	0x3f212b13	0.6295635

l2.weight f4 [8, 8]
0	0xbe26721f	-0.16254471
1	0xbe88d5df	-0.2672567
2	0x3d440020	0.04785168
3	0x3b2a7900	0.0026012063
4	0xbe37333b	-0.17890637
5	0xbdef11ae	-0.11673294
6	0xbe17bede	-0.14818904
7	0xbeb0e1dd	-0.3454732
8	0x401f928a	2.493319
9	0xbfc45ecf	-1.5341433
10	0x400ab1c6	2.1671004
11	0xbe22e7a3	-0.15908675
12	0x3f9327e1	1.1496545
13	0x3f3a988e	0.7288903
14	0x3f928b11	1.144869
15	0x3f1630c5	0.58668166
16	0xbfd043d8	-1.6270704
17	0x3fffc385	1.9981543
18	0xbf45f28f	-0.7732324
19	0x400b24aa	2.1741128
20	0xbdbfecce	-0.09371339
21	0x3fd09b5e	1.6297414
22	0x3f8c7d75	1.0975786
23	0x3fee8b36	1.8636234
24	0xbe9ee94a	-0.3103736
25	0xbe8b9955	-0.2726542
26	0x3e9a9b9d	0.3019685
27	0x3d964226	0.073368356
28	0xbd04d1e8	-0.032426745
29	0xbe445d80	-0.19176292
30	0x3dd856e3	0.10563447
31	0xbdc61c38	-0.09673351
32	0xbe3e191e	-0.18564269
33	0xbe065f8f	-0.1312239
34	0x3d2d4065	0.04229774
35	0xbdef6aff	-0.1169033
36	0xbe285112	-0.16437176
37	0xbe4fb5bc	-0.2028417
38	0x3e1f9e59	0.15587749
39	0x3d9c1309	0.07620818
40	0x3f8597dd	1.043697
41	0x3fc984bd	1.5743634
42	0x40278ccf	2.6179693
43	0x3e08fae6	0.1337696
44	0x407f5724	3.9896936
45	0x3eea1975	0.45722547
46	0xc00e1a03	-2.2203376
47	0xbfbc6328	-1.471776
48	0xbe4cdc4f	-0.20005916
49	0x3caccc81	0.021093609
50	0x3e1924eb	0.1495549
51	0x3d9c4a1b	0.07631322
52	0x3b0d8135	0.0021591906
53	0xbd7d63b5	-0.061862666
54	0xbe07502c	-0.13214177
55	0xbea2dcc8	-0.31809068
56	0xbe426c27	-0.1898657
57	0xbd02681f	-0.03183758
58	0x3e9600b6	0.29297417
59	0xbd9e6086	-0.07733254
60	0x3f208992	0.62709916
61	0xbd9bdab3	-0.07610073
62	0x3eacf775	0.33782545
63	0xbcc9751a	-0.024591971

l2.bias f4 [8]
0	0xbe9035b8	-0.28165984
1	0xbe06a0b4	-0.13147241
2	0x3f62e2b5	0.8862718
3	0xbe6ae443	-0.22938637
4	0xbeb10666	-0.34575194
5	0x3f09d9ad	0.5384777
6	0xbe38014e	-0.17969248
7	0xbea41356	-0.32046002

l3.weight f4 [8, 8]
0	0xbea6f92f	-0.32611987
1	0xc0f8fb3d	-7.7806687
2	0xbe899645	-0.2687246
3	0xbdc60f40	-0.096708775
4	0x3e9db451	0.30801633
5	0x3d119138	0.035538882
6	0xbcb4575f	-0.022014318
7	0xbc52c55b	-0.012864436
8	0xbe434ff9	-0.19073476
9	0x3e332ff0	0.17498755
10	0xc0e4d9d6	-7.1515913
11	0xbe96a15e	-0.29419988
12	0x3e370936	0.17874607
13	0xbd4c71bf	-0.049913164
14	0x3e1386b6	0.14406857
15	0xbdff36e8	-0.124616444
16	0xbeab72cd	-0.33486024
17	0xbfe7a733	-1.80979
18	0x3f8180e6	1.0117462
19	0xbe81fda2	-0.2538882
20	0x3e03149e	0.12800834
21	0xc036e7ab	-2.85789
22	0xbda0dd36	-0.07854693
23	0xbe9208d1	-0.2852235
24	0x3c3f5d60	0.011679977
25	0x40153cf9	2.3318465
26	0xbfdf0e34	-1.742621
27	0xbe7797fa	-0.24179068
28	0x3e25ed1d	0.16203733
29	0xc081bee1	-4.0545506
30	0xbd900ffe	-0.070343
31	0x3fab5b68	1.338727
32	0xbe55ed71	-0.20891358
33	0xc02a1586	-2.6575637
34	0xbfd3f062	-1.6557734
35	0x3de872ec	0.113500446
36	0xbddd7f2e	-0.10815273
37	0x3de45ece	0.11150895
38	0xbec771a0	-0.38953876
39	0xbf73076a	-0.9493319
40	0x3e3b49de	0.18289897
41	0xbdaac69a	-0.083386615
42	0x3f1dc413	0.6162731
43	0xbd3d224b	-0.046175282
44	0x3cb28441	0.02179158
45	0xc0399444	-2.8996744
46	0x3e0b060d	0.13576527
47	0xbf254d6d	-0.6457127
48	0x3e858db1	0.26084664
49	0x3eb32c2b	0.34994635
50	0xc0392e44	-2.8934488
51	0x3e84cc15	0.25936952
52	0xbdfbd71c	-0.12296888
53	0xbf5fcfe5	-0.87426597
54	0xbe1f295a	-0.15543118
55	0xbfa7b4e6	-1.3102081
56	0xbddf3f16	-0.109007046
57	0xbff5b6f4	-1.9196458
58	0xc096d09c	-4.712965
59	0xbe4b4adc	-0.19852775
60	0x3dbae484	0.09125617
61	0x3f8a3a37	1.0799016
62	0xbe96d2d7	-0.29457733
63	0xbe686ceb	-0.22697799

l3.bias f4 [8]
0	0x3ed7b220	0.42128086
1	0x40194d5c	2.3953466
2	0xbf347867	-0.7049622
3	0xbff853e6	-1.9400604
4	0xbeeeb314	-0.46621
5	0x3de5b424	0.11216
6	0xbfef0183	-1.8672336
7	0xc0525a56	-3.2867637
