model_data.pth (torch, 28655 bytes, 6 tensors)

l1.weight f4 [8, 543]
00000000: 8004 ed3e c7b8 6fbe 9814 873e fa1b 39be
00000010: 32c6 653e 8895 b4bd 3403 093f e124 04bd
00000020: 80cd 003f 1cdf 0f3f 62f9 0a3f 5110 35be
00000030: 3e23 23be 3773 423e 7d16 9cbe e4e7 6e3e
00000040: 52cc 583e 06ef 2dbe 02a7 fc3e e836 103f
00000050: 0fcc 9dbe 6bde 533e 4216 a2be 1fbb 033f
00000060: c9c1 4a3f 6cd8 16be 0ee2 c83e 9513 f83e
00000070: f385 223f 2627 92be 145e d63e 0cb6 c8be
00000080: 61d0 163e 1c38 bc3e 846b c3be 002d cf3e
00000090: 6c6b 803e a2ff d03e 91ff cfba cda2 ccbe
000000a0: 2719 a23e 73a7 92be 4b6b 3c3e 1a04 583e
000000b0: 98e5 dfbd 4a00 f5bc e440 4e3f b737 9f3e
000000c0: d7a2 193f e916 e03e 9a02 013f cc37 273e
000000d0: d05a a43e e868 7abe ef83 94be 059a 50bd
000000e0: 6336 4abe 15fb 003f 1f24 91be 1cbf 19bf
000000f0: 6b19 f7bd 405e 293f 4aa2 fa3e 5c92 3abb
00000100: 38b6 a8bd 7da3 353f 285c e73d 3390 0c3f
00000110: 7996 b2be 53fb 92be 8438 efbb 1ff7 08bf
00000120: 5c5d 683e c613 153f f4cc 993e eee5 0ebe
00000130: a2dd 403f ef81 c43e 5876 0fbe 9097 383e
00000140: 5a08 ff3e 66ca 96be 4263 ca3e 572d c3bd
00000150: 71c7 fd3e 353b 063f fe45 043f 6ae0 c73e
00000160: 91a8 033f 54be c93e bb2e 0b3f 9978 9c3e
00000170: 84a3 a23e 1d97 54bd d7b5 0cbe efb3 96bd
00000180: fca1 ef3e 55b9 adbe 6a55 d43b 1033 263f
00000190: a19f 003f 5620 023f 834f 123f 460d 19be
000001a0: 6937 273d 249c 023f fab9 093e 7fcc 84be
000001b0: 5728 a23e d4c1 b83e 83f7 9abe 4392 14be
000001c0: 4fc0 77be cec4 87bd 26be 1f3f 5e8a 49be
000001d0: 39bf b73c 7e78 c73e 69ed 133f 96cd 013f
000001e0: 3f0d 333f 2115 45be e2b6 aa3e 546a 0d3f
000001f0: 383a 113e a650 1f3f cc82 d73e 5b18 c63e
00000200: ef85 fa3e 5994 343e 47ba 4d3c b9f1 153f
00000210: 1b76 36be 18d6 fe3e f95a 06bf 8bcc 1c3f
00000220: 4577 083f f2b1 1abf 7514 2ebe ac00 16be
00000230: d250 9cbe 3a5f 16bd e05d 143f 4201 223f
00000240: 3f67 103f 88ad 053f 4456 b2be 2d19 133f
00000250: c1d8 2a3f 4e3a 883d 32ef c03e 2dc9 e53e
00000260: ea61 c8be 148c 1fbd 816d 0d3f 46f4 1dbe
00000270: e869 073f 070e 323f 9020 dc3e e665 183f
00000280: 004c 2e3f 5e89 2b3f 9b46 a53e 0b23 083f
00000290: 0cd2 1b3f 516e a5bd ce06 043f cb87 153f
000002a0: f01d 05bf 15b0 a6be 60b1 263f e99f a53e
000002b0: 5ed6 a33d 8c1b 41bd ac83 27bd 71c7 213f
000002c0: 4772 003f 25cc a1be eaaf 063f c097 1f3f
000002d0: f933 ad3e 5eb5 ff3e 8eed 183f fe87 483e
000002e0: fdab c03e fc35 103f 1b54 acbe 4fe3 0cbd
000002f0: 9842 38bd 4747 b1be 84b3 3cbd ab5a b3be
00000300: 1f80 133e 180c eb3e b2d6 8fbd 59b7 1a3f
00000310: 23ac 1f3f 6fd6 e53e 9741 58bd 63ea aabe
00000320: 8e51 44be b416 053e b270 b2be 95d1 29bf
00000330: 9db1 003f 2821 be3e 4c4c 64bd 564a a93e
00000340: 0c0d b3be bd3b b3be b667 28be 0648 0a3e
00000350: 437f 7c3e be6d 033f f32c 85be 1c2d 13be
00000360: daec f63e f4dc dd3e b780 e63e 8595 e63e
00000370: abbd 57be 2cdf 00bf e15a 033f 2826 f63e
00000380: f0b2 013f 18ba e23e a947 ff3e d25e 233e
00000390: 8808 0cbf 510b ec3c 66d7 903d 318f 283f
000003a0: 8a1e 0abf b92d 9ebe b931 013f 4b27 813e
000003b0: f1c5 2a3f 7092 353f cfe5 da3e 48d2 083f
000003c0: 7282 8ebe 7aa0 d43e 189d e43e ded0 6fbd
000003d0: c4a2 b9bd 59cf b5bd e73e 213f 7a01 afbe
000003e0: 576d 043f afce 193e 1567 223e fa3b 35be
000003f0: 4244 363e 6472 083f 22fb 3b3f b92b 9a3e
0.46292496 -0.2341033 0.263829 -0.18077078 0.22438887 -0.08817583 0.5352051 -0.032261733
0.5031357 0.5619981 0.5428678 -0.17682005 -0.15931413 0.18989263 -0.30485907 0.23330647
0.21171692 -0.16985711 0.49346167 0.5633378 -0.30819747 0.20690314 -0.31657606 0.514574
0.7920194 -0.14730996 0.39234966 0.4845244 0.6348564 -0.28545493 0.4186865 -0.3920139
0.14727928 0.36761558 -0.38167965 0.4046402 0.25081956 0.40820032 -0.0015869011 -0.39967957
0.31659815 -0.2864338 0.18400304 0.21095315 -0.109324634 -0.029907364 0.80567765 0.31097195
0.600141 0.4376748 0.50394595 0.16329879 0.32100534 -0.24454081 -0.29006907 -0.050928134
-0.1974731 0.5038312 -0.2834787 -0.60057235 -0.12065395 0.6615944 0.48951942 -0.0028468585
-0.082378805 0.7095259 0.11296874 0.5490753 -0.34880427 -0.2870737 -0.0073004384 -0.53502077
0.22691864 0.58233297 0.3003918 -0.13954899 0.75338185 0.3838038 -0.14009988 0.18026567
0.4981106 -0.29451293 0.39528853 -0.09530132 0.49566224 0.5243409 0.516693 0.39038402
0.51429087 0.3940302 0.5436818 0.3056076 0.31765378 -0.051901925 -0.13741241 -0.07358538
0.46803272 -0.3393046 0.0064799087 0.64921665 0.50243574 0.5083059 0.57152575 -0.1494647
0.040824328 0.510195 0.1344985 -0.25937268 0.31671402 0.3608538 -0.3026696 -0.1450892
-0.24194454 -0.066293344 0.6239952 -0.19681689 0.02243005 0.38959116 0.57784134 0.50704324
0.69942087 -0.19246341 0.33342654 0.5524037 0.14182365 0.62232435 0.42091978 0.38690457
0.48930308 0.17634715 0.012556619 0.58571965 -0.17818491 0.49772716 -0.52482563 0.6124961
0.5330699 -0.60427773 -0.16999991 -0.14648694 -0.3053041 -0.03671191 0.5795574 0.6328317
0.5640754 0.5221791 -0.3483144 0.5746029 0.6673699 0.06651746 0.37682492 0.44880047
-0.39137203 -0.03895195 0.55245215 -0.15425214 0.52895975 0.69552654 0.42993593 0.59530485
0.68084717 0.6700648 0.3228043 0.5317847 0.6086738 -0.08077682 0.51572883 0.5841033
-0.51998806 -0.32556215 0.651144 0.32348564 0.07999872 -0.04714541 -0.040897056 0.6319495
0.50174373 -0.31601062 0.52612174 0.6234093 0.33828714 0.4994306 0.5973748 0.19583127
0.37631217 0.56332374 -0.33657917 -0.034396466 -0.044985384 -0.34624693 -0.046069637 -0.35030112
0.14404343 0.45907664 -0.07023372 0.60436016 0.62372035 0.44890162 -0.052796926 -0.33381948
-0.19171736 0.12996942 -0.34851605 -0.6633542 0.50271016 0.3713467 -0.055736825 0.33064526
-0.3497089 -0.35006514 -0.16445813 0.13504037 0.24657921 0.5133933 -0.26010856 -0.14372677
0.48227578 0.43332636 0.45020077 0.4503595 -0.21068446 -0.50340533 0.51310545 0.48075986
0.5066366 0.44282603 0.4985936 0.1595414 -0.5470052 0.02881399 0.07072334 0.6584349
-0.5395285 -0.3089426 0.50466496 0.2522529 0.66708285 0.7092657 0.42753455 0.53445864
-0.27833897 0.41528684 0.44651103 -0.0585488 -0.09064248 -0.08877439 0.62986606 -0.34180814
0.5172934 0.1502025 0.15859635 -0.1769866 0.17799476 0.53299546 0.73430073 0.30111483

l1.bias f4 [8]
00000000: f3ea b13e 5527 cc3e 7c4e 383f 075e eb3e
00000010: db28 a73e 3b4b e83e 24ce a13e 46e0 033f
0.34749565 0.39873758 0.7199476 0.45970175 0.32648358 0.45369896 0.31602585 0.5151409

l2.weight f4 [8, 8]
00000000: 9b8a 8bbd 5f07 593f 7295 f5be 9f0e f03e
00000010: 1201 df3f 7653 d93f c90f b33b 342d 0940
00000020: ef53 59bf 672b e4be f41e 7f3f b963 3bbf
00000030: 8217 853e 1d0e a43f dfc3 b93f ac30 863e
00000040: 6fa5 33bf 984f 3fbf 2720 e03d 9c64 843f
00000050: 8628 bf3f 15b5 a73f d642 ce3f f7b4 113e
00000060: cf9a 683f 356c a63f 9d3a 823e 96f6 cfbf
00000070: 8206 043f a7aa 923f 2b23 19bf 1823 983d
00000080: 076d 523f ac5e e03e 2461 a13f bb0c cc3f
00000090: fae1 92bf 7ce1 4bbf ae10 87bf 634b 8d3f
000000a0: a16f 193f d840 ad3f 586c de3f c8f1 bbbf
000000b0: 88e8 babe ae43 e4bd 1a16 063f fbf3 f5be
000000c0: 43d4 453e b43a 60bf b91d f33e f702 473f
000000d0: a699 bebd 45b6 e5bc 6377 d13e 801d 48bf
000000e0: 9a1a c53f 8bb2 903f d3d8 4c3f eaad 39bb
000000f0: 165f 71bf cb52 3a3e 739f 8dbf 4dd6 063f
-0.06813546 0.8477687 -0.4796558 0.46886155 1.7422202 1.6978595 0.005464528 2.143384
-0.848937 -0.44564363 0.99656606 -0.7319904 0.25994498 1.2816807 1.45129 0.2620901
-0.70174307 -0.74730825 0.109436326 1.0343204 1.4934242 1.3102137 1.6114147 0.14229189
0.9086122 1.3001772 0.25435343 -1.6247127 0.5157243 1.1458329 -0.5981929 0.074285686
0.8219761 0.4382223 1.260777 1.5941385 -1.1475213 -0.79640937 -1.0551965 1.1038631
0.5993596 1.3535414 1.7376814 -1.4683161 -0.36505532 -0.111457214 0.52377474 -0.48037705
0.19319253 -0.87589574 0.47483614 0.777389 -0.0930665 -0.028041014 0.40911397 -0.78170013
1.5398743 1.1304487 0.8001835 -0.002833242 -0.94285715 0.18195646 -1.1064285 0.5267075

l2.bias f4 [8]
00000000: 6ab4 99bd 5ae4 723b 3727 703f 3c02 c23d
00000010: 84df 2d3f 734f 4b3f c3cd c63e 6a83 6e3e
-0.075051144 0.0037062378 0.9380984 0.094730824 0.6791918 0.79418105 0.3882886 0.23292318

l3.weight f4 [10, 8]
00000000: a25a bebf 8fa0 853f 088c b5be 3600 69bf
00000010: 0552 b5bd c44e 5f3f 1913 dcbe 8690 7cbe
00000020: 0beb 41be e4d8 41bf 49a8 41bd b9f4 6fbe
00000030: 1c45 75bd 86d8 3a3e 8b42 41bf d083 163d
00000040: 2137 823f a387 a33e 4e94 ee3e 96c8 d7bf
00000050: bb10 f9be 5c25 2ec0 b0e6 d5bf abe1 a2bf
00000060: 80a6 06c0 25e5 bdbf 1261 00c0 ed2b 743f
00000070: fd8f d03c e051 6e3f 7afd 5abf c1ad 2f3f
00000080: 7dea b8bf 5f7e 1c3f 0ebb 283e b763 2ac0
00000090: 91fb 3fbe 9fa4 013f 8f5d 8c3e c76f 3dc0
000000a0: 640e ea3e 593f 053d 8ea4 573e 4ab8 f43c
000000b0: 0194 a8bf de44 d43d 7a11 94bf 5c89 41bf
000000c0: 0b93 d43e a876 703d 7692 5cbf 2868 703f
000000d0: 6b88 1fbf c6cf 863d b442 61bf 724e 103f
000000e0: 002b 773e 0917 c1bf 4769 33bf 4c02 97bf
000000f0: cf6a 813f be98 08bf 5f33 55bf 86e5 533f
00000100: f204 0fbf 1de6 413e 48c0 533f 5667 87bf
00000110: c1e6 85bd de96 90bf bd9c 763f 8b49 14bf
00000120: 4d2d 38c0 e978 2fc0 6dc0 c13d 503c 4bc0
00000130: 3ad2 353f 446c 7a3e c015 453f 1995 0b3f
-1.4871409 1.0439624 -0.35458398 -0.91015947 -0.088535346 0.8722956 -0.4298332 -0.24664506
-0.18937318 -0.75721574 -0.04727963 -0.23433198 -0.05988036 0.1824666 -0.7549216 0.0367468
1.0173074 0.3193942 0.46597522 -1.6858089 -0.48645577 -2.7210302 -1.6711025 -1.2725118
-2.1039124 -1.4835554 -2.0059247 0.95379525 0.025459284 0.9309368 -0.85543025 0.686245
-1.444656 0.61130327 0.16477606 -2.662336 -0.18748309 0.50641817 0.2741513 -2.9599473
0.45714104 0.032531116 0.21058866 0.029873032 -1.3170167 0.10364698 -1.1567833 -0.7560022
0.41518435 0.05870691 -0.8616098 0.9390893 -0.6231753 0.065825984 -0.87992406 0.563697
0.24137497 -1.5085155 -0.70082515 -1.1797576 1.011072 -0.53358066 -0.8328151 0.827721
-0.5586692 0.18935438 0.8271527 -1.0578411 -0.065381534 -1.1296041 0.96332914 -0.5792472
-2.877765 -2.7417548 0.094605304 -3.1755562 0.71023905 0.24455363 0.7698631 0.5452438

l3.bias f4 [10]
00000000: cc05 1dbf 00ef 30be c50e f1be ca6e 4f3c
00000010: 9eba 143f de59 98bd 1c87 fcbe 6028 11be
00000020: 28a4 eb3e e52e 573f
-0.6133697 -0.17278671 -0.4708158 0.0126606915 0.58097255 -0.07439016 -0.4932183 -0.14175558
0.4602368 0.8405593
